band_detect_keras/models/band_true_best_torch.pth (torch_old, 428282 bytes, 130 tensors)

input.conv.bias f4 [32]
0.14442103 0.0016044494 0.073300414 -0.034976598 0.07836136 0.028565489 -0.06994263 0.063973725
-0.002253641 -0.00021695609 -0.0022592614 0.013463353 -7.783702e-06 6.567551e-05 0.05343943 -0.026192542
-0.028563304 -0.0150235435 0.01131367 0.07860346 0.10553891 0.09670779 -0.08032437 -0.06281888
-0.02623827 0.026630059 -0.014230152 -0.059044003 0.06488911 -0.05987002 -0.036536414 0.09145155
00000000: 1be3 133e 634c d23a 871e 963d 9f43 0fbd
00000010: ec7b a03d 2c02 ea3c 153e 8fbd a804 833d
00000020: d2b1 13bb b57e 63b9 1e10 14bb 6595 5c3c
00000030: bf96 02b7 45bb 8938 4ee3 5a3d be91 d6bc
00000040: 97fd e9bc 4f25 76bc f95c 393c dafa a03d
00000050: c924 d83d bc0e c63d 1a81 a4bd 2fa7 80bd
00000060: a4f1 d6bc 4827 da3c 9525 69bc 20d8 71bd
00000070: 95e4 843d 443a 75bd 35a7 15bd f34a bb3d

input.bn.weight f4 [32]
0.9672371 0.96321124 0.97543937 0.9592729 1.0182283 0.97336507 1.0143912 0.93029594
0.9870309 0.991517 0.9693772 0.97348386 1.0287043 1.0352464 0.95803046 1.0093448
1.0403994 0.9502059 0.85764074 1.0045911 1.0129702 1.0580168 0.9775766 1.0271472
0.970927 1.0367785 1.0001237 0.9989988 0.9666615 0.99515426 0.9859014 1.0077264
00000000: da9c 773f 0395 763f 65b6 793f e992 753f
00000010: 4e55 823f 742e 793f 92d7 813f e027 6e3f
00000020: 0fae 7c3f 0fd4 7d3f 1b29 783f 3d36 793f
00000030: 95ac 833f f482 843f 7c41 753f 3632 813f
00000040: cf2b 853f b240 733f 588e 5b3f 7196 803f
00000050: 02a9 813f 186d 873f 7642 7a3f 8f79 833f
00000060: ac8e 783f 28b5 843f 0e04 803f 63be 7f3f
00000070: 2177 773f 6ec2 7e3f 0964 7c3f 2efd 803f

input.bn.bias f4 [32]
-0.08344533 -0.058537073 0.032601725 -0.006888108 -0.055976916 0.12121793 0.021768592 0.03787126
0.007707924 -0.020493003 -0.073111355 0.06711789 -0.040853407 -0.11071648 -0.022716127 0.024869777
0.031086516 0.049004685 0.12866783 0.009242766 -0.01376364 -0.0068358714 -0.005094381 -0.011229866
-0.026230443 0.005141043 0.027812159 0.06550431 0.103973635 0.036494482 0.021853482 -0.068272226
00000000: 63e5 aabd 92c4 6fbd 6389 053d a3b5 e1bb
00000010: 0d48 65bd 1b41 f83d 0c54 b23c e51e 1b3d
00000020: c192 fc3b f1e0 a7bc 68bb 95bd 1b75 893d
00000030: e755 27bd 52bf e2bd 2c17 babc b4bb cb3c
00000040: 26a9 fe3c 23b9 483d 80c1 033e f86e 173c
00000050: e480 61bc 72ff dfbb c4ee a6bb 79fd 37bc
00000060: 3ae1 d6bc 3276 a83b 53d6 e33c 2027 863d
00000070: 21f0 d43d 3d7b 153d 1306 b33c 4fd2 8bbd

input.bn.running_mean f4 [32]
-0.15472613 -0.14024459 0.017509032 0.6440646 -0.035191715 0.30971262 0.48212206 0.21750902
0.2897822 -0.5291062 0.011654007 0.20413205 -1.1141442 -0.9095657 0.19842525 0.014081366
0.59351796 0.14159156 -0.02822492 0.030563802 -0.23439968 -0.57784826 0.6850868 0.60463727
1.0479032 0.4334444 0.40080053 0.28191367 0.024717152 0.19961984 0.37268305 -0.008047383
00000000: 8770 1ebe 479c 0fbe 1a6f 8f3c 6be1 243f
00000010: 3025 10bd a792 9e3e b4d8 f63e afba 5e3e
00000020: 555e 943e 8173 07bf 73f0 3e3c fe07 513e
00000030: 479c 8ebf 4cd9 68bf fd2f 4b3e 88b5 663c
00000040: cbf0 173f 61fd 103e f337 e7bc f060 fa3c
00000050: 7806 70be dded 13bf d961 2f3f 82c9 1a3f
00000060: b121 863f 6dec dd3e ba35 cd3e fd56 903e
00000070: a07b ca3c 2569 4c3e 50d0 be3e 2cd9 03bc

input.bn.running_var f4 [32]
0.04070114 0.009894698 0.0016555984 0.1997529 0.0060319486 0.03504742 0.13001464 0.0130348345
0.037901722 0.118552804 0.0009772643 0.015984029 0.5249345 0.3494481 0.008855002 0.005052309
0.16491589 0.013523714 0.0028911643 0.003969174 0.049659733 0.19327863 0.24723198 0.1882127
0.48628223 0.0744807 0.07333551 0.052248154 0.00269034 0.028967457 0.071409434 0.0066767028
00000000: 3db6 263d 5f1d 223c aa00 d93a 068c 4c3e
00000010: a7a7 c53b e28d 0f3d 8f22 053e 0f90 553c
00000020: d63e 1b3d d0cb f23d 8c17 803a f0f0 823c
00000030: 1b62 063f ddea b23e 9214 113c d78d a53b
00000040: b6df 283e 9192 5d3c b079 3d3b d80f 823b
00000050: 0168 4b3d d5ea 453e 612a 7d3e d4ba 403e
00000060: fcf9 f83e 5689 983d ee30 963d 2902 563d
00000070: 6a50 303b 294d ed3c 1c3f 923d 3ec8 da3b

down1.conv.bias f4 [32]
-0.021938272 -0.077453814 -0.041701213 -0.023869604 -0.037364453 0.07462042 4.5299545e-05 0.050898507
0.06019872 -0.06661911 0.0021930754 0.0064836415 -0.034183037 0.025232518 0.028444596 0.07219505
0.05348091 0.07163178 -0.041720483 -0.0076352977 -0.06195231 0.031890783 0.061981983 0.006656334
-0.017330576 0.017881833 0.061160073 0.02960698 0.05184162 0.032790154 3.1751017e-05 -0.0060935826
00000000: e4b7 b3bc 1ba0 9ebd e4ce 2abd 308a c3bc
00000010: 780b 19bd 97d2 983d 0400 3e38 f47a 503d
00000020: ef92 763d 9a6f 88bd b3b9 0f3b ba74 d43b
00000030: 8303 0cbd 6db4 ce3c a404 e93c 00db 933d
00000040: cc0e 5b3d afb3 923d 19e3 2abd 8531 fabb
00000050: b5c1 7dbd e99f 023d d2e0 7d3d 601d da3b
00000060: daf8 8dbc ec7c 923c fc82 7a3d 568a f23c
00000070: e157 543d f84e 063d 652c 0538 adac c7bb

down1.bn.weight f4 [32]
1.0452307 1.0167712 1.0366899 0.90704674 1.0153651 0.94321835 1.014224 1.017063
1.0161607 1.0144956 1.0132121 0.95559967 1.0048721 1.0187111 1.0305388 0.8873462
0.98327756 0.9929503 0.98457634 1.053376 1.0323981 0.9397959 1.0334144 0.9144038
1.0136466 0.9975324 1.0251158 0.9952846 1.0077646 0.9811677 1.0622262 0.9792029
00000000: 1fca 853f 8f25 823f 41b2 843f 3734 683f
00000010: 7cf7 813f c276 713f 18d2 813f 1f2f 823f
00000020: 8e11 823f feda 813f efb0 813f 2ea2 743f
00000030: a69f 803f 2065 823f b2e8 833f 1f29 633f
00000040: 14b8 7b3f fe31 7e3f 320d 7c3f 06d5 863f
00000050: 9f25 843f 7796 703f ec46 843f 5e16 6a3f
00000060: 2cbf 813f 495e 7f3f ff36 833f f9ca 7e3f
00000070: 6efe 803f ce2d 7b3f 07f7 873f 0bad 7a3f

down1.bn.bias f4 [32]
-0.01897711 -0.007035549 -0.01372075 0.044231318 0.027764535 0.02352867 -0.05293792 -0.03731848
0.036415048 0.049565792 -0.042491492 -0.10220548 -0.004689008 -0.016486146 -0.022168575 0.08083401
0.0017282846 0.04973009 -0.069447085 0.005371755 0.032443073 0.027399069 0.13619743 -0.0056489846
-0.018589303 0.03940447 -0.0044062734 -0.022802357 0.046705548 -0.008087071 0.0258606 0.010563119
00000000: e275 9bbc 768a e6bb ffcc 60bc e62b 353d
00000010: 7372 e33c 33bf c03c 6fd5 58bd 43db 18bd
00000020: f227 153d 8005 4b3d 8f0b 2ebd 1b51 d1bd
00000030: 40a6 99bb f40d 87bc df9a b5bc 4d8c a53d
00000040: 9c87 e23a c7b1 4b3d 463a 8ebd 8c05 b03b
00000050: 07e3 043d 0374 e03c 5777 0b3e 1e1b b9bb
00000060: 9848 98bc 9566 213d 8062 90bb 02cc babc
00000070: 514e 3f3d a27f 04bc 9cd9 d33c ef10 2d3c

down1.bn.running_mean f4 [32]
-0.15365733 0.062006373 0.37176734 -0.73500025 -0.1694453 2.0546455 -1.7526677 1.3993013
0.4826457 -0.018449463 2.0208347 -0.061300017 -0.08894068 0.981795 1.4939797 0.085833244
0.345078 -0.18437749 0.6261349 0.77578247 0.42935523 0.5033016 0.27300453 1.0354636
0.22491594 -0.17135724 -0.33616865 0.69142383 0.37532422 -0.45438695 -1.2128747 0.5017118
00000000: 5958 1dbe 65fa 7d3d 4a58 be3e fa28 3cbf
00000010: 1283 2dbe 507f 0340 6a57 e0bf 4e1c b33f
00000020: 561d f73e 5423 97bc 5b55 0140 ba15 7bbd
00000030: 8826 b6bd eb56 7b3f ba3a bf3f 57c9 af3d
00000040: 10ae b03e 74cd 3cbe 604a 203f ae99 463f
00000050: 73d4 db3e 60d8 003f 40c7 8b3e 128a 843f
00000060: 5d50 663e 4678 2fbe 4c1e acbe 2701 313f
00000070: 7f2a c03e 68a5 e8be 7a3f 9bbf 2f70 003f

down1.bn.running_var f4 [32]
3.3682754 1.9745247 2.7546885 9.55821 1.8196231 1.7624794 4.4291406 3.6357546
4.5187364 1.4894211 1.4355896 1.091009 3.4335468 3.169912 5.353604 1.6031667
4.713527 0.94588023 1.1182226 2.5528173 4.0320377 0.6255056 2.0839875 0.45041296
3.844554 2.626327 3.560789 4.435777 3.7229085 2.4440444 5.852544 4.6425543
00000000: d391 5740 3abd fc3f d14c 3040 6eee 1841
00000010: 69e9 e83f ed98 e13f 85bb 8d40 34b0 6840
00000020: 7d99 9040 5aa5 be3f 66c1 b73f 2fa6 8b3f
00000030: 3bbf 5b40 d7df 4a40 b950 ab40 9134 cd3f
00000040: 37d5 9640 3525 723f eb21 8f3f 5c61 2340
00000050: 7406 8140 2321 203f 0d60 0540 879c e63e
00000060: 2c0d 7640 be15 2840 f8e3 6340 e3f1 8d40
00000070: 2244 6e40 396b 1c40 0a48 bb40 ce8f 9440

down2.conv.bias f4 [32]
-0.032787234 0.00032624495 0.026673114 -0.0023970879 -0.014128983 -0.024401834 0.023951214 0.00938046
-0.010840861 0.07637004 0.017571898 -0.0074816826 -0.008440677 -0.054682367 -0.018066319 0.020504503
0.015074741 -0.0103608 -0.0051712934 -0.026693676 -0.01826226 -0.018822435 0.013879117 -0.020133248
0.032508377 0.01100085 -0.012275405 0.030124662 0.014334737 0.013807713 -0.0015715344 0.00058520783
00000000: e84b 06bd db0b ab39 9381 da3c 7618 1dbb
00000010: 407d 67bc 5be6 c7bc 5635 c43c 80b0 193c
00000020: de9d 31bc e567 9c3d f1f2 8f3c e728 f5bb
00000030: c44a 0abc 9efa 5fbd d1ff 93bc 0ff9 a73c
00000040: 0cfc 763c 58c0 29bc f473 a9bb b2ac dabc
00000050: bc9a 95bc 8231 9abc 3c65 633c 7bee a4bc
00000060: 8127 053d e93c 343c c81e 49bc ffc7 f63c
00000070: 3fdc 6a3c bf39 623c f2fb cdba a268 193a

down2.bn.weight f4 [32]
1.0230389 1.0264237 1.045208 0.90038735 1.0165886 0.9655621 1.0504817 1.0283626
0.98319566 1.0022194 1.0250088 0.9980426 0.9919444 1.0336787 1.0624593 0.97515607
0.96688485 0.99515086 0.9642287 0.99110514 1.0107791 0.97066265 1.0445693 1.0250275
1.0463839 0.95805717 1.0066624 0.9320533 0.99109226 1.0329598 0.9835682 0.85562795
00000000: f0f2 823f da61 833f 60c9 853f c97f 663f
00000010: 931f 823f 142f 773f 2f76 863f 63a1 833f
00000020: b6b2 7b3f ba48 803f 7d33 833f b87f 7f3f
00000030: 11f0 7d3f 954f 843f abfe 873f d4a3 793f
00000040: c485 773f 35c2 7e3f b1d7 763f 11b9 7d3f
00000050: 3661 813f 597d 783f 72b4 853f 1a34 833f
00000060: e8ef 853f 3c43 753f 50da 803f 0c9b 6e3f
00000070: 39b8 7d3f 0738 843f 20cb 7b3f 6f0a 5b3f

down2.bn.bias f4 [32]
-0.02171306 0.033371143 0.010796803 -0.052615337 0.011798628 0.0036187698 0.045076523 0.018524831
-0.016493553 0.008595649 0.012664163 -0.0135568185 0.03341037 0.0031016232 0.004218917 -0.02170472
-0.01147101 -0.031832613 -0.027292898 0.022662526 0.034573816 -0.096821025 0.029132085 0.036759194
-0.013274797 0.013149986 0.076178886 0.07948647 0.021194998 0.012129958 -0.013854163 -0.035297725
00000000: 96df b1bc 2eb0 083d 13e5 303c 2e83 57bd
00000010: 084f 413c e228 6d3b 29a2 383d 63c1 973c
00000020: 7d1d 87bc c4d4 0c3c 597d 4f3c 6b1d 5ebc
00000030: 50d9 083d 9a44 4b3b d73e 8a3b 19ce b1bc
00000040: e7f0 3bbc ea62 02bd 5b95 dfbc c3a6 b93c
00000050: 469d 0d3d 1a4a c6bd 69a6 ee3c cf90 163d
00000060: 897e 59bc 0a73 573c ad03 9c3d cdc9 a23d
00000070: 22a1 ad3c bbbc 463c 92fc 62bc 5994 10bd

down2.bn.running_mean f4 [32]
0.13978262 0.00512654 0.48351213 -1.0032474 0.5160409 0.08393607 0.03848099 0.8287897
1.8501337 0.3235152 -1.0405997 0.8562132 0.014056621 0.76136583 -0.8418762 0.7546981
-1.389111 0.2834582 0.15574433 0.24277937 -0.9345455 0.048974525 -0.40573573 -0.21716473
0.98274064 -0.44312987 -1.3194841 0.9869347 0.13622504 0.8971301 0.16774225 -0.19969378
00000000: 2d23 0f3e 89fc a73b e78e f73e 696a 80bf
00000010: 421b 043f ade6 ab3d 3e9e 1d3d 902b 543f
00000020: 2ed1 ec3f c9a3 a53e 5f32 85bf ca30 5b3f
00000030: be4d 663c dfe8 423f 3385 57bf e533 413f
00000040: 64ce b1bf 6f21 913e 717b 1f3e 289b 783e
00000050: 603e 6fbf 8399 483d 98bc cfbe 6e60 5ebe
00000060: e494 7b3f ebe1 e2be dbe4 a8bf c1a7 7c3f
00000070: 947e 0b3e 51aa 653f a0c4 2b3e 877c 4cbe

down2.bn.running_var f4 [32]
4.011842 7.524699 12.569405 1.6159669 3.9722347 1.2912573 3.0881596 3.225587
4.1514177 2.8203619 7.565034 7.3810987 2.5072684 2.4681513 6.113742 1.8665637
5.01535 1.8595852 2.7915323 1.1036967 3.1283925 0.89751554 2.9934545 3.0760756
4.9101954 1.054563 8.0172205 0.7506578 1.7868227 5.495896 5.0647264 0.27693367
00000000: 0261 8040 56ca f040 481c 4941 01d8 ce3f
00000010: 1839 7e40 eb47 a53f 68a4 4540 0470 4e40
00000020: 6ad8 8440 cf80 3440 c214 f240 f631 ec40
00000030: 1677 2040 31f6 1d40 c6a3 c340 8feb ee3f
00000040: bf7d a040 e306 ee3f 77a8 3240 ef45 8d3f
00000050: 9537 4840 94c3 653f c294 3f40 6cde 4440
00000060: 5220 9d40 ecfb 863f 8946 0041 1c2b 403f
00000070: 9bb6 e43f 61de af40 3d12 a240 40ca 8d3e

down3.conv.bias f4 [32]
0.008852762 -0.0106118 0.0020007577 0.008578629 -0.041296676 0.0061026243 0.039135 0.00223131
-0.0142656015 1.0202271e-05 -0.031903766 0.016342362 -0.005941107 -0.030081244 -0.0228811 -0.009251945
0.019488052 0.10788093 0.01806421 0.024034852 0.015598497 0.028162125 -0.05731413 -0.0006527025
-0.030155687 -0.029999878 0.009872034 -0.017833805 -0.046287227 -0.019082854 0.026582396 0.03211189
00000000: 2d0b 113c 1ddd 2dbc 251f 033b 618d 0c3c
00000010: b426 29bd 86f8 c73b 064c 203d 2b3b 123b
00000020: 45ba 69bc 6c2a 2b37 86ad 02bd 6be0 853c
00000030: 9ead c2bb f16c f6bc 2571 bbbc 7895 17bc
00000040: 68a5 9f3c adf0 dc3d 65fb 933c bde4 c43c
00000050: d790 7f3c 42b4 e63c 39c2 6abd 201a 2bba
00000060: 0f09 f7bc 4ec2 f5bc 50be 213c 3318 92bc
00000070: ad97 3dbd a553 9cbc 53c3 d93c c287 033d

down3.bn.weight f4 [32]
1.0290307 0.9110337 1.0297769 1.0312613 1.1016483 0.9522983 0.99732876 0.97809285
0.98368883 0.9083087 0.9683602 1.0137099 0.99545157 1.0089761 0.9388882 0.9733167
1.0303156 0.92298156 0.9893716 1.02883 1.0389092 0.9941232 1.0369956 0.9681351
1.0101247 1.0649129 1.0120732 1.0224304 0.9071974 0.9394536 1.0637319 1.0103197
00000000: 47b7 833f 8139 693f bbcf 833f 5f00 843f
00000010: d002 8d3f d2c9 733f f050 7f3f 4b64 7a3f
00000020: 08d3 7b3f eb86 683f 74e6 773f 3fc1 813f
00000030: ead5 7e3f 2126 813f fa5a 703f 492b 793f
00000040: 62e1 833f 8548 6c3f 7547 7d3f b4b0 833f
00000050: fafa 843f dc7e 7e3f 46bc 843f b4d7 773f
00000060: c44b 813f 114f 883f 9d8b 813f 00df 823f
00000070: 173e 683f 0880 703f 5e28 883f 2852 813f

down3.bn.bias f4 [32]
0.021904837 -0.0427575 0.02018825 0.029321313 0.037998617 -0.07087109 0.060466513 -0.039951723
0.019244967 0.030730076 0.057668887 0.0374829 -0.052850883 0.020987747 -0.038547516 -0.06348953
0.04009145 0.026276778 0.022800822 0.0010702136 0.0031780598 -0.01065032 0.015990663 -0.014516391
0.021831283 0.021222668 0.0059398706 0.02889468 -0.009206457 -0.068194315 0.060516853 0.032971412
00000000: c671 b33c 7d22 2fbd d461 a53c 4033 f03c
00000010: 70a4 1b3d dd24 91bd bcab 773d 6ba4 23bd
00000020: 9fa7 9d3c a4bd fb3c 3636 6c3d ab87 193d
00000030: 2b7a 58bd 7fee ab3c 00e4 1dbd cc06 82bd
00000040: ef36 243d 6642 d73c cac8 ba3c 6946 8c3a
00000050: ff46 503b ae7e 2ebc dafe 823c 28d6 6dbc
00000060: 85d7 b23c 29db ad3c 3fa3 c23b 89b4 ec3c
00000070: aed6 16bc 76a9 8bbd 85e0 773d 080d 073d

down3.bn.running_mean f4 [32]
0.1607222 -0.96916604 -0.65690595 -0.17640771 -0.15267022 -1.1332598 -0.27172774 0.5581496
0.8680178 -2.6588016 0.56052125 -0.14521112 0.99679804 -0.1782741 0.78505707 1.1089435
-0.4002476 -0.021103099 -0.50489974 0.9028474 0.41084257 -0.6901503 -0.57285625 0.43595657
-0.6341276 0.53377366 0.04924365 0.39465514 0.9837474 0.43299 -0.4594426 -0.5068505
00000000: 5c94 243e 441b 78bf fd2a 28bf 39a4 34be
00000010: 9555 1cbe a80e 91bf e61f 8bbe e4e2 0e3f
00000020: 6a36 5e3f ce29 2ac0 527e 0f3f 39b2 14be
00000030: 282e 7f3f 7c8d 36be 80f9 483f dcf1 8d3f
00000040: 41ed ccbe 68e0 acbc 1c41 01bf 0221 673f
00000050: f559 d23e b1ad 30bf b5a6 12bf b335 df3e
00000060: 3056 22bf 64a5 083f b6b3 493d 3d10 ca3e
00000070: dfd6 7b3f deb0 dd3e 0f3c ebbe f4c0 01bf

down3.bn.running_var f4 [32]
0.8083069 0.71114385 1.0940773 3.1724155 7.9847155 4.1053095 3.359376 1.0410409
0.8513355 2.155561 0.2568888 5.7669544 0.6922514 11.11153 0.7561407 6.180309
2.02114 0.6915968 3.0390496 5.9946795 8.814645 4.906605 0.5306941 1.1418421
15.227251 5.179064 3.6706634 5.892728 0.5016596 0.5324476 3.7607658 3.638218
00000000: 33ed 4e3f 860d 363f ba0a 8c3f db08 4b40
00000010: ca82 ff40 b25e 8340 0400 5740 d440 853f
00000020: 20f1 593f b6f4 0940 ee86 833e e48a b840
00000030: 6337 313f d4c8 3141 7092 413f 17c5 c540
00000040: 5c5a 0140 7d0c 313f ca7f 4240 6ad4 bf40
00000050: c908 0d41 e802 9d40 92db 073f e227 923f
00000060: d2a2 7341 e4ba a540 26ec 6a40 3a91 bc40
00000070: c36c 003f 7c4e 083f 63b0 7040 90d8 6840

down4.conv.bias f4 [32]
-0.011975266 -0.030134944 0.004353019 -0.048101407 0.02043378 0.01884022 0.02135638 0.008116826
-0.006612926 0.034586634 -0.04556078 -0.017634833 -0.0523215 0.010908807 -0.017051326 0.022494785
0.02752369 0.012369606 0.020938799 0.044571146 -0.04568574 -0.006765976 0.030942462 0.020765988
-0.048147246 0.022271315 0.006580149 0.024057478 0.046130296 0.001072742 0.020779943 -0.04213485
00000000: e833 44bc 8fdd f6bc c5a3 8e3b fb05 45bd
00000010: be64 a73c ce56 9a3c 93f3 ae3c 70fc 043c
00000020: 3eb1 d8bb b7aa 0d3d f19d 3abd ed76 90bc
00000030: 124f 56bd daba 323c 39af 8bbc fc46 b83c
00000040: 5d79 e13c e3a9 4a3c d887 ab3c 3c90 363d
00000050: f820 3bbd 1fb5 ddbb 0c7b fd3c 6f1d aa3c
00000060: 0c36 45bd 5572 b63c 4a9e d73b 3014 c53c
00000070: 1ff3 3c3d 409b 8c3a b33a aa3c 9895 2cbd

down4.bn.weight f4 [32]
0.92269903 1.0087957 0.97205025 1.0118461 1.0150865 1.0170796 0.98775434 0.961043
1.0120974 0.9064183 0.98029053 1.0306665 1.0525023 1.039155 0.9504943 0.96919924
0.8498341 1.0001727 1.0878286 0.9816935 0.940898 0.98076713 1.0817918 1.0149624
0.9289711 0.973049 0.96490675 0.9597056 1.0459868 1.0336765 1.0236374 0.9996955
00000000: 0136 6c3f 3820 813f 49d8 783f 2c84 813f
00000010: 5bee 813f aa2f 823f 78dd 7c3f ea06 763f
00000020: 688c 813f 080b 683f 52f4 7a3f e1ec 833f
00000030: 65b8 863f 0803 853f 9853 733f 711d 783f
00000040: ba8e 593f a905 803f f83d 8b3f 4450 7b3f
00000050: b1de 703f 8e13 7b3f 2778 8a3f 4aea 813f
00000060: 0dd1 6d3f bd19 793f 2104 773f 44af 753f
00000070: e5e2 853f 834f 843f 8d06 833f 0bec 7f3f

down4.bn.bias f4 [32]
-0.017549612 0.0096048005 0.0034790793 0.07034981 0.010842894 0.007388985 0.011074937 -0.03150859
0.012069961 -0.07540929 -0.025208188 0.0019279168 0.033037532 0.022765879 -0.019110842 -0.017158331
-0.06020014 -0.018269438 0.051939968 0.045190867 -0.08041709 0.045597777 0.04528613 -0.008673635
-0.047173183 -0.002178502 -0.031425804 -0.008725293 0.047874693 -0.001736889 -0.037561126 0.03543424
00000000: 34c4 8fbc 745d 1d3c 4401 643b 9013 903d
00000010: 65a6 313c 4c1f f23b a773 353c 270f 01bd
00000020: 16c1 453c 3070 9abd 6781 cebc 27b2 fc3a
00000030: 5d52 073d 827f ba3c 578e 9cbc a18f 8cbc
00000040: 6c94 76bd caa9 95bc 01bf 543d 0f1a 393d
00000050: b7b1 a4bd bcc4 3a3d f37d 393d dd1b 0ebc
00000060: ab38 41bd 33c5 0ebb 58b8 00bd 88f4 0ebc
00000070: 4118 443d 53a8 e3ba b2d9 19bd 7e23 113d

down4.bn.running_mean f4 [32]
-0.38355577 0.7840516 -1.2773468 -2.1481273 0.71701366 0.72520435 0.20288621 0.570111
-0.8528811 -1.9210085 0.23406343 -0.47988838 0.05355066 0.9562574 -1.7040639 0.10343905
-0.79244226 1.2550067 -1.543241 0.19117843 1.0764941 -1.4133328 -0.13717346 -0.21331139
-1.0376018 -0.03465839 0.30185655 -0.6963854 0.97185355 0.019084211 2.0048337 -0.430946
00000000: 6c61 c4be 9bb7 483f 1a80 a3bf eb7a 09c0
00000010: 358e 373f fea6 393f 67c1 4f3e cbf2 113f
00000020: 6a56 5abf 9be3 f5bf 53ae 6f3e eeb3 f5be
00000030: f057 5b3d 49cd 743f c41e dabf dad7 d33d
00000040: 7fdd 4abf 0fa4 a03f ec88 c5bf 47c4 433e
00000050: 8fca 893f 17e8 b4bf 3377 0cbe 4d6e 5abe
00000060: 23d0 84bf f5f5 0dbd f18c 9a3e 5046 32bf
00000070: 65cb 783f 7e56 9c3c 324f 0040 f4a4 dcbe

down4.bn.running_var f4 [32]
5.16158 3.1553981 2.690188 8.509382 2.0157874 5.929727 1.5449096 0.2000061
11.523753 0.38330162 0.71951884 4.016186 7.439434 2.9223402 2.4575963 0.26539028
0.27905527 1.4259506 6.950783 1.0435486 1.140907 1.3658644 8.500074 1.0471739
0.515495 0.41402012 0.9125509 2.5359502 5.1769547 4.0655575 1.1588123 3.3954332
00000000: aa2b a540 0bf2 4940 0a2c 2c40 6e26 0841
00000010: a902 0140 53c0 bd40 99bf c53f 66ce 4c3e
00000020: 4b61 3841 1c40 c43e 6332 383f 9984 8040
00000030: d80f ee40 9f07 3b40 4249 1d40 3ce1 873e
00000040: 55e0 8e3e 8d85 b63f d06c de40 0093 853f
00000050: 3e09 923f a5d4 ae3f 4e00 0841 cb09 863f
00000060: 7bf7 033f 72fa d33e f09c 693f 024d 2240
00000070: 9da9 a540 0c19 8240 f653 943f c74e 5940

down5.conv.bias f4 [32]
-0.05366928 -0.016658068 0.011727042 0.025418643 0.0076088044 0.032041363 -0.027994184 -0.04166707
0.009876705 -0.058547683 0.0673662 0.023827981 -0.00045848408 0.03798238 0.016394507 -0.0013649953
-0.017358797 0.005709626 -0.013987965 0.018002704 -0.01741598 0.0180426 0.0031794542 -0.010275799
-0.006626965 -0.025858479 0.009379526 1.9822116e-06 -0.0056122467 -0.04040329 -0.03875997 0.056769285
00000000: 52d4 5bbd 8076 88bc c722 403c c23a d03c
00000010: 4753 f93b ce3d 033d 0f54 e5bc 17ab 2abd
00000020: e7d1 213c b2cf 6fbd 4af7 893d e632 c33c
00000030: b160 f0b9 6993 1b3d c64d 863c a4e9 b2ba
00000040: 0934 8ebc d017 bb3b c72d 65bc 687a 933c
00000050: f5ab 8ebc 13ce 933c 645e 503b d35b 28bc
00000060: 0327 d9bb 29d5 d3bc 95ac 193c 2306 0536
00000070: f0e6 b7bb ec7d 25bd c6c2 1ebd e986 683d

down5.bn.weight f4 [32]
1.048823 1.0971724 0.9957447 1.0526912 0.96670586 1.0080587 0.97907764 1.0670055
0.9940697 0.94379056 0.99213654 0.9615637 0.9106367 0.95879024 0.9748743 0.9531558
0.9361402 1.016374 1.043728 1.0099227 1.0393157 1.0461817 1.0283778 0.9668484
0.9713319 0.9776875 1.0198606 0.9564537 1.0252932 1.0070333 1.060407 0.96084136
00000000: d53f 863f 2570 8c3f 20e9 7e3f 96be 863f
00000010: 097a 773f 1108 813f d5a4 7a3f a393 883f
00000020: 5a7b 7e3f 429c 713f a9fc 7d3f 0a29 763f
00000030: 7d1f 693f 4773 753f 5d91 793f 0502 743f
00000040: e2a6 6f3f 8b18 823f e198 853f 2645 813f
00000050: 4c08 853f 48e9 853f e2a1 833f 6083 773f
00000060: 35a9 783f ba49 7a3f cb8a 823f 26da 743f
00000070: cf3c 833f 78e6 803f 6bbb 873f b3f9 753f

down5.bn.bias f4 [32]
-0.0023508072 0.08079711 -0.022341726 0.018989772 -0.01181581 0.00684421 -0.021781214 0.044183284
-0.055402044 -0.051620252 -0.01138648 0.05561053 0.014664792 -0.011066992 -0.01098921 -0.01934344
-0.03136074 -0.022836536 0.069334835 0.069130294 0.047664467 0.04627008 0.05221092 0.014279684
0.0064105876 0.026131742 0.036905944 -0.03092347 0.03122825 0.011455628 0.043927662 -0.03619656
00000000: 0010 1abb f578 a53d ff05 b7bc 7090 9b3c
00000010: 1997 41bc 6545 e03b 846e b2bc 88f9 343d
00000020: 41ed 62bd c26f 53bd 5c8e 3abc dec7 633d
00000030: 9944 703c 5452 35bc 160c 34bc 2276 9ebc
00000040: 1f74 00bd b013 bbbc 6cff 8d3d 2f94 8d3d
00000050: d13b 433d b285 3d3d 1edb 553d 56f5 693c
00000060: e80f d23b 3c12 d63c b02a 173d 3853 fdbc
00000070: 63d2 ff3c 63b0 3b3c 7eed 333d d842 14bd

down5.bn.running_mean f4 [32]
-0.0034157496 -0.9054607 1.0886973 0.72814333 0.4904385 0.58269215 0.097081505 0.30020759
1.4801065 0.99430877 0.6007265 -1.7931587 -0.7543553 1.2494142 -1.572713 -0.40033656
0.679412 0.14677417 -0.7418363 -0.70709634 -1.1891975 -0.78244317 -0.5942569 2.2685604
0.6709771 0.06812796 -0.111377 -1.8967979 -1.3641644 0.4074426 1.4472628 -0.78647953
00000000: c5da 5fbb 46cc 67bf 6f5a 8b3f 9a67 3a3f
00000010: c11a fb3e 502b 153f abd2 c63d cfb4 993e
00000020: 2174 bd3f 058b 7e3f 36c9 193f 3986 e5bf
00000030: 6e1d 41bf ceec 9f3f a94e c9bf eaf8 ccbe
00000040: f2ed 2d3f f84b 163e fce8 3dbf 4404 35bf
00000050: a037 98bf 324e 48bf 3821 18bf 1830 1140
00000060: 28c5 2b3f ac86 8b3d a019 e4bd 46ca f2bf
00000070: f09c aebf 519c d03e e83f b93f b956 49bf

down5.bn.running_var f4 [32]
3.5892682 5.9390354 2.9187758 3.516428 0.53452015 1.5655434 1.4596779 2.653369
1.3231117 0.41035378 1.8500605 3.780771 1.5395974 1.340367 3.4298725 4.970287
1.30581 3.1863837 3.037255 0.6943414 1.818571 2.7024415 4.779934 0.5454348
2.0157087 0.9809839 3.1203272 1.0521915 2.563378 1.9139175 4.949643 6.5576906
00000000: 92b6 6540 940c be40 39cd 3a40 280d 6140
00000010: 50d6 083f ba63 c83f bad6 ba3f ccd0 2940
00000020: b95b a93f e419 d23e c8ce ec3f 27f8 7140
00000030: 8711 c53f 2591 ab3f 0883 5b40 970c 9f40
00000040: c824 a73f b6ed 4b40 6362 4240 5cc0 313f
00000050: efc6 e83f cdf4 2c40 38f5 9840 9da1 0b3f
00000060: 5f01 0140 c321 7b3f 71b3 4740 36ae 863f
00000070: 630e 2440 40fb f43f 7a63 9e40 9ad8 d140

down6.conv.bias f4 [32]
-0.061006796 -0.015831696 -0.080942445 0.116576776 0.048690796 -0.004340499 0.017675333 -0.014478462
-0.0074787242 0.028373456 -0.014708831 -0.011296846 -0.050005622 0.012335412 -0.008451552 0.015788162
0.033757377 0.001100581 0.0020394365 0.011184687 -0.00895824 -0.02388649 -0.023562578 -0.0069853277
-0.027567048 -0.024768312 0.031936478 -0.01911824 0.027062792 -0.014939478 -0.015627665 0.021707043
00000000: 43e2 79bd 79b1 81bc 27c5 a5bd cebf ee3d
00000010: 0070 473d bf3a 8ebb dccb 903c 1237 6dbc
00000020: 1610 f5bb 736f e83c 4ffd 70bc 6816 39bc
00000030: b2d2 4cbd 781a 4a3c 6178 0abc 2d56 813c
00000040: 2d45 0a3d 5f41 903a 11a8 053b fa3f 373c
00000050: 95c5 12bc 9aad c3bc 4f06 c1bc 2de5 e4bb
00000060: 4ad4 e1bc eae6 cabc d3cf 023d db9d 9cbc
00000070: cab2 dd3c b6c4 74bc 9705 80bc f8d2 b13c

down6.bn.weight f4 [32]
0.97527605 1.0133228 0.9632518 0.99380773 0.9925684 0.9685004 1.0311111 0.9989932
1.0845807 0.9876393 1.0754067 1.0364416 0.90843207 0.96289045 1.0272834 1.0458612
0.9678088 0.9888149 1.0199783 1.0234325 0.90884775 1.0226105 1.0137186 1.0431147
1.0234277 1.0459718 1.037548 1.0076182 1.0673337 0.97219706 0.9884068 0.99623525
00000000: b1ab 793f 90b4 813f ac97 763f 2f6a 7e3f
00000010: f618 7e3f a4ef 773f 73fb 833f 05be 7f3f
00000020: 8ad3 8a3f eed5 7c3f eda6 893f 1eaa 843f
00000030: 018f 683f fd7f 763f 067e 833f c8de 853f
00000040: 51c2 773f f922 7d3f a68e 823f d6ff 823f
00000050: 3faa 683f e7e4 823f 88c1 813f c884 853f
00000060: aeff 823f 67e2 853f 5fce 843f a2f9 803f
00000070: 649e 883f e8e1 783f 3a08 7d3f 4609 7f3f

down6.bn.bias f4 [32]
0.040343072 0.02037208 0.03287042 0.0031837726 0.03833786 -0.004375749 0.022594364 -0.02332409
0.021001315 0.0029407796 0.05323668 0.03487931 0.036427245 -0.05214876 0.012298877 0.029892713
0.0009987437 -0.047530852 0.043144073 -0.0040577566 0.07293661 0.03075289 0.017816829 0.019207742
-0.0017702614 0.021468898 0.026061362 0.01796872 0.059119143 0.004784766 0.035128858 -0.023039302
00000000: c73e 253d 59e3 a63c 22a3 063d d7a6 503b
00000010: 2908 1d3d 7162 8fbb d117 b93c 2912 bfbc
00000020: f30a ac3c 18ba 403b b40e 5a3d 9bdd 0e3d
00000030: bc34 153d f099 55bd 3b81 493c 90e1 f43c
00000040: 47e8 823a b6af 42bd d7b7 303d eef6 84bb
00000050: ca5f 953d 7ced fb3c 99f4 913c 8e59 9d3c
00000060: 1e08 e8ba 8bdf af3c a37e d53c 2333 933c
00000070: ea26 723d 87c9 9c3b 47e3 0f3d ebbc bcbc

down6.bn.running_mean f4 [32]
-0.49371085 0.1010368 -0.8951082 -1.5955963 1.4831293 0.840486 -0.3336381 0.7507359
0.38272431 0.28059638 -0.034293223 0.56035435 0.6386192 1.0585339 0.693229 -0.8693618
1.0290097 0.8404459 -0.6271119 -0.11296149 0.104656845 0.3771658 -2.320069 0.08734636
-0.19699317 -0.4283798 -0.1536084 -0.8633973 0.55580264 -0.123644136 -0.605647 0.3871933
00000000: abc7 fcbe 62ec ce3d d025 65bf 803c ccbf
00000010: 2ed7 bd3f 172a 573f 9dd2 aabe 3a30 403f
00000020: 71f4 c33e 54aa 8f3e 0d77 0cbd 6273 0f3f
00000030: 8c7c 233f 0a7e 873f 7577 313f 7f8e 5ebf
00000040: 97b6 833f 7627 573f 688a 20bf 5b58 e7bd
00000050: 5456 d63d e01b c13e 037c 14c0 a6e2 b23d
00000060: 94b8 49be 9954 dbbe 854b 1dbe 9b07 5dbf
00000070: 1549 0e3f 2339 fdbd af0b 1bbf 333e c63e

down6.bn.running_var f4 [32]
0.6237541 0.4308997 2.4072437 2.8298848 0.69421893 1.7238532 7.3882356 1.4556841
2.8870277 4.754032 2.043167 2.6573317 1.0043155 1.1232947 5.4397664 1.2008342
2.1128178 0.80917233 0.5672328 2.3790445 0.741981 0.80780023 1.9581538 4.192041
3.7829123 2.4960134 0.5702324 1.3772228 4.652655 0.6956901 1.3686041 0.6359499
00000000: 59ae 1f3f e39e dc3e 4810 1a40 d51c 3540
00000010: 55b8 313f 39a7 dc3f 6d6c ec40 db53 ba3f
00000020: 10c5 3840 0821 9840 40c3 0240 b911 2a40
00000030: 698d 803f 1fc8 8f3f 9112 ae40 efb4 993f
00000040: 6838 0740 eb25 4f3f 2b36 113f 4442 1840
00000050: 78f2 3d3f ffcb 4e3f c9a4 fa3f 3325 8640
00000060: 3c1b 7240 afbe 1f40 c0fa 113f d648 b03f
00000070: 8de2 9440 bf18 323f 6b2e af3f 9dcd 223f

down7.conv.bias f4 [32]
-0.021668492 -0.046858698 0.0043168506 -0.0015931824 0.01794195 0.0306681 0.049256176 -0.056465227
-0.015486002 -0.0032451616 0.025151849 -8.613187e-08 0.04781071 0.029952671 0.0011090488 0.043074343
-0.029107643 -0.030464897 0.023261627 0.009402467 0.020490868 0.010374986 -0.021626033 0.040151022
-0.015534545 0.018980376 -0.005471436 0.00379236 0.0073514236 -0.020897197 0.0016790669 0.035869874
00000000: 1f82 b1bc e8ee 3fbd 5e74 8d3b 55d2 d0ba
00000010: fffa 923c ab3b fb3c d8c0 493d 1548 67bd
00000020: 00b9 7dbc c7ac 54bb 400b ce3c 7ff7 b8b3
00000030: 2ad5 433d 4e5f f53c 815d 913a b96e 303d
00000040: 2773 eebc 8591 f9bc 2b8f be3c ce0c 1a3c
00000050: 77dc a73c d8fb 293c 1429 b1bc 6675 243d
00000060: 9b84 7ebc bc7c 9b3c bb49 b3bb 3e89 783b
00000070: 36e4 f03b 9930 abbc 2314 dc3a 4aec 123d

down7.bn.weight f4 [32]
0.95117885 0.95975494 1.0243655 1.0135494 1.0356791 0.92215306 0.9577953 0.95708305
1.011568 1.0427202 1.0129844 0.983019 1.0129216 0.9721118 0.98363227 0.9854431
1.0584785 0.9981826 1.012879 1.0255963 0.96399933 1.009603 1.0173198 0.9903783
0.9591127 1.042012 1.02056 0.9957921 0.9921826 1.0165918 1.0316294 0.95556176
00000000: 7580 733f 80b2 753f 691e 833f fdbb 813f
00000010: 2291 843f 3912 6c3f 1332 753f 6503 753f
00000020: 0f7b 813f db77 853f 79a9 813f 22a7 7b3f
00000030: 6aa7 813f 52dc 783f 53cf 7b3f 0046 7c3f
00000040: 397c 873f e588 7f3f 05a6 813f bd46 833f
00000050: a9c8 763f ac3a 813f 8937 823f 6f89 7d3f
00000060: 6988 753f a660 853f b6a1 823f 3bec 7e3f
00000070: aeff 7d3f ae1f 823f 6f0c 843f b29f 743f

down7.bn.bias f4 [32]
-0.022595087 -0.013131075 0.069717 -0.0027286238 0.00086075405 0.0014532612 -0.042814992 -0.04253354
-0.0087132845 -0.0027770486 -0.020745508 -0.008584977 0.0054482375 0.057802793 -0.0621913 -0.00046791317
0.037253536 0.02594719 0.0093620345 0.028848572 -0.011848767 0.02357342 0.041812457 -0.01494416
0.02178864 0.08016917 0.044748113 0.00022697092 -0.036072392 0.017013054 0.07394862 -0.042207703
00000000: 5519 b9bc b823 57bc c9c7 8e3d b6d2 32bb
00000010: 3aa4 613a 5b7b be3a c65e 2fbd a637 2ebd
00000020: 2ac2 0ebc 25ff 35bb 7cf2 a9bc 01a8 0cbc
00000030: 2187 b23b 9fc2 6c3d 4ebc 7ebd 3e52 f5b9
00000040: 2a97 183d 348f d43c 3863 193c d753 ec3c
00000050: 5521 42bc 0b1d c13c 8a43 2b3d 5ad8 74bc
00000060: 177e b23c bc2f a43d cc49 373d 0bff 6d39
00000070: a5c0 13bd f65e 8b3c 6072 973d fce1 2cbd

down7.bn.running_mean f4 [32]
-0.73071414 0.62250704 1.0086695 -0.7606239 1.1282289 -0.8255167 -0.6943009 -0.07048051
-0.28040475 -0.29853046 0.2455643 -0.84482896 -0.17790867 0.64869344 0.18154342 -0.35692394
-0.6487536 0.15458876 -0.34330684 -1.273824 0.6157032 1.1444448 -1.4814618 0.3693414
0.38928986 -0.105840094 0.34090984 -1.3479503 -0.27196214 0.56100863 -1.1013713 -0.10238254
00000000: 1510 3bbf 9f5c 1f3f 151c 813f 3fb8 42bf
00000010: ce69 903f 1055 53bf b4bd 31bf 1658 90bd
00000020: 3691 8fbe fcd8 98be 3575 7b3e b646 58bf
00000030: b12d 36be c610 263f 85e6 393e bcbe b6be
00000040: b714 26bf 844c 1e3e eac5 afbe aa0c a3bf
00000050: ba9e 1d3f 2b7d 923f 8aa0 bdbf 511a bd3e
00000060: 0051 c73e b1c2 d8bd bc8b ae3e a389 acbf
00000070: 9f3e 8bbe 439e 0f3f bcf9 8cbf f0ad d1bd

down7.bn.running_var f4 [32]
0.8707266 4.9231057 2.598884 0.9521851 0.7061002 1.4203125 0.85114616 1.8161821
0.98604834 2.6199777 1.102198 2.8589864 1.59602 1.2034507 0.85203713 0.55233717
5.3883085 0.7494709 2.167775 1.1879793 0.94286 0.99590194 1.621834 1.0499953
1.2653354 3.6451426 2.55421 1.4008237 2.1735477 1.5601972 2.6259656 1.591013
00000000: f0e7 5e3f 158a 9d40 1e54 2640 67c2 733f
00000010: fcc2 343f cdcc b53f b7e4 593f a878 e83f
00000020: aa6d 7c3f b7ad 2740 d314 8d3f a2f9 3640
00000030: 624a cc3f ac0a 9a3f 1b1f 5a3f f865 0d3f
00000040: 066d ac40 53dd 3f3f d3bc 0a40 b50f 983f
00000050: 465f 713f 6ef3 7e3f 4298 cf3f 3f66 863f
00000060: 83f6 a13f 044a 6940 2d78 2340 314e b33f
00000070: 681b 0b40 8bb4 c73f d20f 2840 50a6 cb3f

up1.conv1.conv.bias f4 [32]
0.014268426 0.009565914 0.02260141 0.034208715 -0.014982781 -0.010775853 0.033792205 0.041911658
0.031514853 0.04344335 -0.00023600657 0.033438485 0.040335476 0.008323654 -0.042038213 0.058574576
0.044332586 0.039556447 0.015253936 0.017084375 -0.0045902515 0.018570065 0.019287128 0.043464664
-0.0028831225 0.021056807 0.023044918 -0.052712586 0.013014468 -0.048136655 -0.0006364283 -0.012061429
00000000: 1ec6 693c 5aba 1c3c 9826 b93c 701e 0c3d
00000010: 577a 75bc 348d 30bc b269 0a3d 8fab 2b3d
00000020: b815 013d a7f1 313d 8878 77b9 cbf6 083d
00000030: d036 253d ef5f 083c 4330 2cbd e5eb 6f3d
00000040: 1696 353d f105 223d a5eb 793c 88f4 8b3c
00000050: d269 96bb 4020 983c 0a00 9e3c 0108 323d
00000060: c5f2 3cbb 537f ac3c b2c8 bc3c 27e9 57bd
00000070: a33a 553c f12a 45bd fbd5 26ba 4d9d 45bc

up1.conv1.bn.weight f4 [32]
0.92816633 1.0347934 0.98838913 0.99327886 1.0387053 1.0129021 1.01413 1.0186751
1.0034031 0.99003756 0.972961 1.0770179 1.0084368 0.9740222 0.9684659 1.04694
1.0290383 1.0098823 0.9832248 0.98308575 0.92704976 1.0308645 1.0132961 0.98867965
1.0026408 1.0199898 0.9866301 0.961731 0.9322151 1.0267092 1.0204649 0.9644984
00000000: 4f9c 6d3f 1c74 843f 1207 7d3f 8647 7e3f
00000010: 4cf4 843f c7a6 813f 03cf 813f f263 823f
00000020: 836f 803f 1a73 7d3f f913 793f b9db 893f
00000030: 7514 813f 8559 793f 62ed 773f 2102 863f
00000040: 87b7 833f d343 813f 9fb4 7b3f 82ab 7b3f
00000050: 2253 6d3f 5ef3 833f b0b3 813f 1c1a 7d3f
00000060: 8956 803f 078f 823f ca93 7c3f 0134 763f
00000070: a6a5 6e3f 356b 833f 989e 823f 5ee9 763f

up1.conv1.bn.bias f4 [32]
-0.01005621 0.035379328 -0.002460853 0.020786129 0.012990503 0.012070187 -0.0072864573 0.00026493112
-0.0044334694 -0.025174055 -0.024912123 -0.025766715 0.017550752 0.039154995 0.014113637 0.0014626693
0.031895515 0.024349343 -0.01983441 -0.010524141 -0.006041448 0.044905122 0.0028754836 0.016326439
-0.018498003 0.016340444 0.0045755445 -0.0013823672 -0.010161453 0.069754854 0.018931605 0.043737635
00000000: cdc2 24bc eae9 103d 4346 21bb ac47 aa3c
00000010: 1ed6 543c 09c2 453c 3cc3 eebb 74e6 8a39
00000020: a346 91bb d239 cebc 8214 ccbc b814 d3bc
00000030: 98c6 8f3c fd60 203d e23c 673c 0ab7 bf3a
00000040: dfa4 023d 4678 c73c c67b a2bc 726d 2cbc
00000050: 57f7 c5bb 6fee 373d 9c72 3c3b 06bf 853c
00000060: 2089 97bc 65dc 853c 73ee 953b 8c30 b5ba
00000070: 397c 26bc a2db 8e3d 7416 9b3c 3c26 333d

up1.conv1.bn.running_mean f4 [32]
0.33011433 -0.49831644 -1.187386 0.80023384 -0.12637074 0.10596016 0.24598454 -1.0242118
-0.6342092 0.09134837 -0.13565503 -0.58694154 -0.80628234 -0.53086257 1.4879481 -0.13942194
-0.36018318 -0.2785749 -0.3897702 0.36777472 -0.06747795 0.56955314 -0.37216574 -1.1665969
0.048157096 -0.3618873 -0.29557246 -0.6474047 0.61750513 0.5958846 -0.20796409 0.47408023
00000000: bf04 a93e 5523 ffbe 44fc 97bf 20dc 4c3f
00000010: 5567 01be a401 d93d 5fe3 7b3e 5f19 83bf
00000020: 895b 22bf db14 bb3d 27e9 0abe cd41 16bf
00000030: 8568 4ebf 9ce6 07bf 1575 be3f a0c4 0ebe
00000040: ee69 b8be 5fa1 8ebe f68f c7be f84c bc3e
00000050: e131 8abd 3cce 113f 828c bebe 0c53 95bf
00000060: 6040 453d 4b49 b9be 4655 97be 50bc 25bf
00000070: d114 1e3f e58b 183f 8af4 54be a5ba f23e

up1.conv1.bn.running_var f4 [32]
0.73742586 1.4765148 1.5138011 0.8018727 1.1489544 1.5829618 1.2104635 1.7823881
1.0404469 2.1316729 2.3179076 0.46315885 1.8999444 2.0292246 1.0109351 1.9055899
2.343006 2.0597215 1.1168833 2.1509216 0.7835914 2.0142827 2.2164748 1.1784093
3.2133365 1.9219339 1.2065734 2.8209162 1.2219024 1.7071276 1.0134281 0.6931643
00000000: f1c7 3c3f 70fe bc3f 3cc4 c13f 8747 4d3f
00000010: f010 933f 7e9e ca3f 78f0 9a3f 4b25 e43f
00000020: 5d2d 853f 546d 0840 9958 1440 2823 ed3e
00000030: 6131 f33f d1de 0140 5266 813f 5fea f33f
00000040: cff3 1540 7ad2 0340 08f6 8e3f b3a8 0940
00000050: 7299 483f 02ea 0040 b9da 0d40 1ed6 963f
00000060: 4ea7 4d40 ee01 f63f ff70 9a3f e489 3440
00000070: 4c67 9c3f 2883 da3f 03b8 813f 3773 313f

up1.conv2.conv.bias f4 [32]
0.035025816 -0.0063657747 -0.015294579 -0.022189278 0.03198804 0.035605516 -0.011422856 -0.03247232
0.011498474 0.0493216 0.0022793172 -0.013782707 0.030889755 0.0091313105 0.025314897 -0.0022563613
0.012018195 -0.015023912 0.021553556 -0.00338446 0.039097466 -0.0199396 -0.017405 -0.042828858
0.0016496642 -0.0017309126 -0.02106368 0.04012092 0.04489254 0.03445479 0.005643705 0.049515843
00000000: 3b77 0f3d fd97 d0bb 1d96 7abc 4ac6 b5bc
00000010: e405 033d 17d7 113d ee26 3bbc b201 05bd
00000020: 1864 3c3c 7205 4a3d 9960 153b ddd0 61bc
00000030: 830c fd3c 7e9b 153c 3061 cf3c 76df 13bb
00000040: f7e7 443c db26 76bc 1591 b03c d1cd 5dbb
00000050: aa24 203d 5f58 a3bc ee94 8ebc 506d 2fbd
00000060: 8c39 d83a cadf e2ba bd8d acbc d555 243d
00000070: 3de1 373d 7720 0d3d d4ee b83b 20d1 4a3d

up1.conv2.bn.weight f4 [32]
1.0573566 1.0227482 1.0075655 1.019418 1.0104836 1.0219713 1.0032028 0.96166337
1.0090904 1.0084981 1.0005976 0.98564625 1.0296117 0.9978829 0.99141425 0.9589065
1.0025966 1.0464948 1.0443711 0.95722085 1.0036913 0.9859765 0.93342465 1.0092431
1.0194855 0.9898071 1.0037555 0.93406177 0.9740591 1.0811404 1.0267416 0.9380219
00000000: 7657 873f 6ae9 823f e8f7 803f 4a7c 823f
00000010: 8757 813f f5cf 823f f368 803f 922f 763f
00000020: e029 813f 7716 813f 9513 803f 5053 7c3f
00000030: 51ca 833f 4175 7f3f 53cd 7d3f e57a 753f
00000040: 1655 803f 8bf3 853f f4ad 853f 6d0c 753f
00000050: f578 803f f568 7c3f ebf4 6e3f e12e 813f
00000060: 807e 823f 0064 7d3f 0f7b 803f ac1e 6f3f
00000070: f05b 793f cf62 8a3f 456c 833f 3422 703f

up1.conv2.bn.bias f4 [32]
0.01439787 0.072031125 0.021661907 0.03554516 0.006173975 0.009044096 0.015875448 0.008161934
0.031563774 0.034923952 0.02961576 -0.009602462 0.0099640675 -0.009564578 0.008069504 -0.044482313
0.015794823 -0.0063573974 0.07879033 0.011861104 -0.00077362603 0.022662 0.0013940814 -0.0048799915
0.04712373 -0.004520207 0.009762575 -0.03188162 0.032089524 -0.012640299 0.015895674 -0.024741037
00000000: 0be5 6b3c 0e85 933d 5074 b13c cd97 113d
00000010: 0e4f ca3b b02d 143c 3a0d 823c a2b9 053c
00000020: 0449 013d 6b0c 0f3d c09c f23c a553 1dbc
00000030: 5440 233c bfb4 1cbc f435 043c 1633 36bd
00000040: 2564 813c b751 d0bb d35c a13d 1355 423c
00000050: 2acd 4aba a9a5 b93c 9cb9 b63a 56e8 9fbb
00000060: d004 413d 3f1e 94bb 35f3 1f3c 4d96 02bd
00000070: 4e70 033d 4219 4fbc a537 823c b7ad cabc

up1.conv2.bn.running_mean f4 [32]
0.73621625 0.15023406 0.10637802 -0.40621507 -0.9252839 -0.051666062 0.3369445 0.3456349
0.27848485 0.3433979 0.10314755 -0.251303 0.8376655 -0.33396387 0.07027174 0.34639934
-0.49333417 0.0075281076 0.81763756 -0.67957485 0.8109679 0.50529695 -0.06977434 0.14736812
-0.4537706 -0.38518927 -0.40791538 -0.9565737 -0.39135265 0.15393262 -0.19401328 -0.12298647
00000000: ab78 3c3f f5d6 193e b8dc d93d 6cfb cfbe
00000010: 68df 6cbf cb9f 53bd fd83 ac3e 0ff7 b03e
00000020: 9195 8e3e d9d1 af3e 063f d33d c9aa 80be
00000030: 3f71 563f 50fd aabe a1ea 8f3d 415b b13e
00000040: 4c96 fcbe 58ae f63b b250 513f 9ef8 2dbf
00000050: 989b 4f3f 245b 013f d9e5 8ebd abe7 163e
00000060: 9f54 e8be 8737 c5be 49da d0be 04e2 74bf
00000070: 605f c8be 83a0 1d3e 6bab 46be 55e0 fbbd

up1.conv2.bn.running_var f4 [32]
0.444446 0.63416004 0.8567106 1.5965099 1.5135126 2.4680777 1.648535 2.0582619
0.7105453 1.0322036 2.1508152 0.84443766 3.2938898 2.4275804 0.88391995 1.2851565
1.6154537 0.81798255 3.1758213 0.7765931 1.1946028 2.7104104 0.7028616 1.0479671
1.5795453 0.78119946 0.88059175 0.9407631 1.1477934 0.35087368 0.760942 1.8286359
00000000: 6d8e e33e 5058 223f 6351 5b3f 705a cc3f
00000010: c8ba c13f fcf4 1d40 3203 d33f 90ba 0340
00000020: 4ce6 353f 3f1f 843f f5a6 0940 112d 583f
00000030: 17cf 5240 7a5d 1b40 9448 623f 0280 a43f
00000040: 30c7 ce3f 4e67 513f a840 4b40 cece 463f
00000050: bfe8 983f 5d77 2d40 bdee 333f c923 863f
00000060: 8a2e ca3f b0fc 473f 766e 613f dad5 703f
00000070: e5ea 923f b7a5 b33e 18cd 423f be10 ea3f

up2.conv1.conv.bias f4 [32]
0.004607496 -0.019461295 0.02234372 0.050070763 0.0060674762 0.029916964 0.0057612564 -9.555588e-05
-0.016172627 0.03799442 0.00013398618 0.09048663 -0.008403272 -0.0067905034 0.0072663925 0.027034631
-0.027543353 -0.035245206 -0.052709673 0.008017928 -0.00080478145 0.025448091 0.03220819 -0.0057093306
-0.007874182 -0.018582137 0.017766792 0.023719706 -0.009518388 0.024163052 0.003897009 0.015012298
00000000: 7afa 963b 4b6d 9fbc 2d0a b73c 0017 4d3d
00000010: aed1 c63b 6c14 f53c ecc8 bc3b 2c65 c8b8
00000020: 757c 84bc 09a0 1b3d a47e 0c39 0e51 b93d
00000030: e1ad 09bc df82 debb eb1a ee3b bb77 dd3c
00000040: 99a2 e1bc 475d 10bd 19e6 57bd a15d 033c
00000050: f8f7 52ba 8478 d03c bcec 033d 5615 bbbb
00000060: b702 01bc 9139 98bc aa8b 913c d44f c23c
00000070: 03f3 1bbc 98f1 c53c f664 7f3b 24f6 753c

up2.conv1.bn.weight f4 [32]
0.9771183 0.9997353 1.0297602 1.042292 0.92627984 1.0291748 0.97092587 1.0025512
0.97503394 0.9986072 0.9823128 0.98018223 0.963072 0.9419499 1.0279175 0.9987932
0.954686 0.96633273 1.0112443 0.98182875 1.026029 1.0111392 1.0268042 0.91966194
1.0125864 0.95468557 0.98745537 1.0041181 0.97555006 0.98114973 0.93237776 0.99710065
00000000: 6d24 7a3f a7ee 7f3f 2fcf 833f d369 853f
00000010: ad20 6d3f 00bc 833f 998e 783f 9953 803f
00000020: d39b 793f b9a4 7f3f da78 7b3f 39ed 7a3f
00000030: e38b 763f a123 713f cd92 833f e9b0 7f3f
00000040: 4d66 743f 9561 773f 7470 813f 2159 7b3f
00000050: eb54 833f 026d 813f 526e 833f f76e 6b3f
00000060: 6e9c 813f 4666 743f e0c9 7c3f f186 803f
00000070: a6bd 793f a12c 7b3f 4fb0 6e3f fd41 7f3f

up2.conv1.bn.bias f4 [32]
-0.051832683 0.017573342 -0.006310076 0.027414707 -0.06225205 0.014649918 0.040398583 0.03010582
-0.015653297 -0.020738672 -0.0039071823 -0.014284951 -0.03935436 -0.007540067 0.032201353 0.014142889
-0.0020601295 -0.030641489 -0.045172315 -0.0066554993 0.017792782 -0.016638944 -0.004277863 -0.04421858
-0.025154745 -0.006834087 -0.03310394 -0.013866403 -0.022178601 0.016714344 0.0054883594 0.041291535
00000000: 824e 54bd f8f5 8f3c c1c4 cebb cf94 e03c
00000010: 01fc 7ebd 3606 703c fc78 253d 7ba0 f63c
00000020: 583b 80bc 26e4 a9bc d207 80bb 6d0b 6abc
00000030: 0a32 21bd ab12 f7bb 91e5 033d 93b7 673c
00000040: 3d03 07bb dc03 fbbc 9b06 39bd 6016 dabb
00000050: 2bc2 913c 654e 88bc 512d 8cbb 8b1e 35bd
00000060: 5311 cebc 7af0 dfbb ff97 07bd e92f 63bc
00000070: e6af b5bc 85ec 883c b2d7 b33b 5021 293d

up2.conv1.bn.running_mean f4 [32]
1.0050884 -0.89128274 0.49435544 -0.21972185 0.064749755 0.22521546 -0.14621091 -0.25819966
0.024705475 -0.09904292 -0.17881417 -0.32570472 -0.34885848 -1.4622616 -0.16439702 0.20136847
0.0024285396 -0.5791502 0.4671967 -0.94289553 0.6144715 0.6613263 -0.789013 -0.5521854
0.8968423 0.15914804 0.1102429 0.22255348 -1.1562151 -0.59808004 -1.3053933 -0.028123165
00000000: bda6 803f 1b2b 64bf 281c fd3e c4fe 60be
00000010: 859b 843d e29e 663e 50b8 15be bf32 84be
00000020: 2363 ca3c 04d7 cabd 101b 37be c5c2 a6be
00000030: 949d b2be 632b bbbf b157 28be 8933 4e3e
00000040: 2228 1f3b 3043 14bf 6834 ef3e 9a61 71bf
00000050: 014e 1d3f ae4c 293f c2fc 49bf 065c 0dbf
00000060: 7597 653f b4f7 223e 08c7 e13d 0fe5 633e
00000070: dbfe 93bf c61b 19bf 2117 a7bf 8d62 e6bc

up2.conv1.bn.running_var f4 [32]
0.93386984 1.8303889 1.1526775 2.6527297 1.110574 0.8654773 1.2260455 0.6721944
0.7113902 1.9708474 1.4700867 1.5600749 0.55495864 0.93732846 1.2725582 1.2089175
1.758502 0.8795438 0.6349499 1.3843738 0.9700358 1.1354436 2.0604615 1.1519682
2.163744 0.5951275 1.6647098 1.4878236 1.0595855 1.1620853 1.5087192 0.5576813
00000000: 1812 6f3f 2f4a ea3f f08a 933f 53c6 2940
00000010: 4a27 8e3f ec8f 5d3f 0fef 9c3f ef14 2c3f
00000020: ab1d 363f ba44 fc3f cd2b bc3f 89b0 c73f
00000030: c511 0e3f c2f4 6f3f 30e3 a23f cfbd 9a3f
00000040: 9816 e13f c829 613f 148c 223f 2933 b13f
00000050: 4454 783f 3756 913f 9ade 0340 b273 933f
00000060: c87a 0a40 475a 183f 3615 d53f 0171 be3f
00000070: 7fa0 873f 36bf 943f b61d c13f 34c4 0e3f

up2.conv2.conv.bias f4 [32]
0.028383639 0.039735183 0.016494604 0.011476164 -0.024072418 -0.010906138 0.0016814432 0.004786129
0.03586733 -0.0037001765 0.07416932 -0.035427425 0.03579819 0.019686444 0.023377422 0.0129942335
0.021697422 0.014616472 0.008782405 -0.018494463 -0.006236868 0.00953522 0.018450411 0.004027717
-0.011572725 0.03555604 -0.0066062664 0.024171628 -0.069487676 -0.006872785 0.016143657 -0.009627058
00000000: ce84 e83c 5cc1 223d b11f 873c 8506 3c3c
00000010: 8533 c5bc a9af 32bc df63 dc3a f6d4 9c3b
00000020: 9fe9 123d a97e 72bb 16e6 973d 591c 11bd
00000030: 1fa1 123d 7745 a13c 0282 bf3c c4e5 543c
00000040: cbbe b13c ed79 6f3c 14e4 0f3c b381 97bc
00000050: a45e ccbb 9d39 1c3c 5125 973c f0fa 833b
00000060: 879b 3dbc 36a3 113d 6179 d8bb 9403 c63c
00000070: 8e4f 8ebd 1935 e1bb b43f 843c cfba 1dbc

up2.conv2.bn.weight f4 [32]
1.0239028 1.0106302 0.959098 0.99218094 1.0160038 1.0378844 1.0377672 1.08583
0.99617445 0.9845175 0.97298306 1.0269192 0.94681215 0.9987331 0.99299043 0.9627701
0.9677784 0.97940624 0.93630046 1.0139823 0.96297336 1.0213954 0.9927447 1.0146387
0.97021294 1.0198094 1.0288272 1.0170453 0.98743916 0.95842373 1.018218 1.0289744
00000000: 3f0f 833f 555c 813f 7287 753f 92ff 7d3f
00000010: 6a0c 823f 65d9 843f 8ed5 843f 7afc 8a3f
00000020: 4a05 7f3f 5709 7c3f 6b15 793f 1772 833f
00000030: 4862 723f f9ac 7f3f 9f34 7e3f 1a78 763f
00000040: 53c0 773f 5eba 7a3f 63b1 6f3f 2cca 813f
00000050: 6c85 763f 16bd 823f 8424 7e3f aedf 813f
00000060: e05f 783f 1d89 823f 9cb0 833f 8a2e 823f
00000070: d0c8 7c3f 425b 753f f854 823f 6fb5 833f

up2.conv2.bn.bias f4 [32]
0.03186691 0.0006497852 -0.013618308 0.017395724 0.043769334 -0.013450423 0.03481144 -0.022143291
0.013940864 0.0014099954 0.0053448863 0.03983268 -0.050930735 0.0058453544 -0.011494128 -0.019650564
0.007398404 0.015883882 -0.023892105 0.014986187 -0.0043670647 0.017164154 -0.0067710197 0.010518539
0.018098239 0.04344301 0.027707119 -0.017229853 0.006469 -0.02377074 0.0068735583 0.023285806
00000000: e186 023d 5956 2a3a 531f 5fbc 7a81 8e3c
00000010: 7947 333d 2a5f 5cbc 7196 0e3d d965 b5bc
00000020: 3968 643c 98cf b83a 2824 af3b 9827 233d
00000030: bf9c 50bd 638a bf3b de51 3cbc 38fa a0bc
00000040: 506e f23b ea1e 823c 60b9 c3bc a088 753c
00000050: 9819 8fbb d79b 8c3c 6edf ddbb f355 2c3c
00000060: c242 943c 4cf1 313d 0afa e23c 9f25 8dbc
00000070: e8f9 d33b dbba c2bc 963b e13b e0c1 be3c

up2.conv2.bn.running_mean f4 [32]
-0.17148224 0.07798864 -0.46514267 0.059767976 -0.185435 0.42198732 -0.85488766 0.16342664
-0.49692264 0.36534178 0.19044006 1.1381948 0.40668523 -0.8200509 0.22772984 -0.33851978
0.60347694 0.18692724 -1.190833 0.56666476 1.4428494 -0.26970813 0.37131315 0.016840795
0.1711884 -0.27665693 0.06876405 0.21277924 0.45235795 -0.51344794 0.82597154 0.81872195
00000000: 0a99 2fbe 82b8 9f3d 2e27 eebe 44cf 743d
00000010: ace2 3dbe b90e d83e ebd9 5abf 5059 273e
00000020: a56c febe 140e bb3e b802 433e 5eb0 913f
00000030: 0c39 d03e dbee 51bf 0332 693e 7752 adbe
00000040: 777d 1a3f db69 3f3e 376d 98bf f110 113f
00000050: 4aaf b83f 2f17 8abe c21c be3e b5f5 893c
00000060: 034c 2f3e faa5 8dbe 2bd4 8c3d cde2 593e
00000070: 769b e73e 5371 03bf df72 533f c397 513f

up2.conv2.bn.running_var f4 [32]
1.9676951 3.3691401 3.8641467 1.2411132 1.1341488 2.329555 1.872513 0.5302228
1.6451956 1.6780939 3.432824 1.0696149 0.84887695 2.5945227 1.780608 1.4705023
1.9490694 1.3698764 1.7107197 3.0722485 1.9412594 1.779527 2.9692934 0.59857917
1.0003606 0.8176931 3.1038022 1.8151128 2.0120828 0.7905536 8.968136 1.6172079
00000000: 6fdd fb3f fe9f 5740 2e4e 7740 ccdc 9e3f
00000010: ca2b 913f 6e17 1540 82ae ef3f aebc 073f
00000020: c595 d23f c8cb d63f 63b3 5b40 24e9 883f
00000030: 0050 593f a90c 2640 f7ea e33f 6b39 bc3f
00000040: 1b7b f93f 1c58 af3f ddf8 da3f b89f 4440
00000050: 307b f83f 8ac7 e33f e708 3e40 7c3c 193f
00000060: d10b 803f 5654 513f b2a4 4640 9e55 e83f
00000070: f7c5 0040 b961 4a3f 7c7d 0f41 ab00 cf3f

up3.conv1.conv.bias f4 [32]
-0.053153556 0.019103654 0.038287073 0.10178251 -0.0008123553 -0.009560296 -0.012302343 0.03997527
0.02411032 0.013515383 -0.053110912 0.020227082 -0.059464853 0.010980306 -0.037543867 -0.024905965
0.00417315 -0.01212781 0.06461541 0.013144366 0.042070433 0.10226094 0.0068342974 -0.026156109
-0.03705692 0.009855289 -0.03973846 -0.07010768 -7.413917e-06 -0.00208804 -0.011265464 0.02302145
00000000: 8bb7 59bd 447f 9c3c e8d2 1c3d 5973 d03d
00000010: 3ef4 54ba caa2 1cbc c48f 49bc 1cbd 233d
00000020: 0183 c53c a06f 5d3c d48a 59bd 44b3 a53c
00000030: 6b91 73bd bee6 333c 99c7 19bd 9807 ccbc
00000040: ebbe 883b b9b3 46bc 1655 843d 785b 573c
00000050: 0c52 2c3d 2f6e d13d 3ef2 df3b 5645 d6bc
00000060: ffc8 17bd 1478 213c ccc4 22bd 9e94 8fbd
00000070: 10c5 f8b6 80d7 08bb c892 38bc 7b97 bc3c

up3.conv1.bn.weight f4 [32]
0.962144 1.0163184 0.98976177 0.9046065 0.9522064 0.98831594 0.9977318 0.987213
1.0508735 1.0371547 1.003706 1.0294129 0.9198688 1.0408703 1.0387349 1.0202409
1.0372202 0.9865801 0.9968058 0.95360553 1.0079945 0.87819445 1.025246 1.0083233
1.040274 1.0120026 0.9655989 0.9990411 0.99460566 0.97639084 1.0097677 1.0331652
00000000: 124f 763f b916 823f 0761 7d3f 4b94 673f
00000010: ccc3 733f 4602 7d3f 5a6b 7f3f feb9 7c3f
00000020: 0683 863f 7cc1 843f 7079 803f cdc3 833f
00000030: 867c 6b3f 3d3b 853f 44f5 843f 4197 823f
00000040: a2c3 843f 8390 7c3f aa2e 7f3f 7e1f 743f
00000050: f705 813f 5ad1 603f 433b 833f bd10 813f
00000060: b327 853f 4d89 813f 7d31 773f 28c1 7f3f
00000070: 7a9e 7e3f c0f4 793f 1140 813f c23e 843f

up3.conv1.bn.bias f4 [32]
-0.039082352 0.049422085 -0.02074732 0.018089069 0.048926357 -0.004595653 -0.001727118 0.0042420174
0.02586306 0.039311316 0.011834265 0.068730384 -0.032293417 0.080918655 0.063731275 0.027210793
0.01863382 -0.016165897 -0.034435667 -0.0009788413 0.020085538 -0.0655617 0.10716293 0.032755442
0.04081918 0.02168387 -0.0009392687 0.008773755 0.036790304 -0.01379552 0.046925105 0.012881675
00000000: d114 20bd d06e 4a3d 49f6 a9bc 872f 943c
00000010: 0167 483d 2297 96bb 7760 e2ba 9f00 8b3b
00000020: c5de d33c e704 213d 81e4 413c 84c2 8c3d
00000030: 1a46 04bd aeb8 a53d 8b85 823d 2be9 de3c
00000040: f4a5 983c 586e 84bc 6a0c 0dbd 774c 80ba
00000050: 6d8a a43c 3645 86bd 3d78 db3d 922a 063d
00000060: 0332 273d 5fa2 b13c 4139 76ba ccbf 0f3c
00000070: 6eb1 163d 9b06 62bc 8a34 403d a90d 533c

up3.conv1.bn.running_mean f4 [32]
-0.38237655 -0.7910582 -0.68707937 0.67576975 -0.3462702 0.4941528 -0.51854163 -0.54002726
-0.28517666 0.14139721 -0.7759566 0.23114426 -0.78778964 0.56963027 0.16148883 -0.67318547
-0.3112389 -0.29782447 -0.13874033 -0.16839164 -0.39521855 0.42962143 0.28470004 -0.75744617
-0.3972497 -0.056640632 0.14377777 -0.9496074 -0.2790315 -0.60079175 -0.5869913 -0.06345325
00000000: dcc6 c3be ca82 4abf 6fe4 2fbf 3fff 2c3f
00000010: 544a b1be 9901 fd3e 25bf 04bf 3a3f 0abf
00000020: ad02 92be 6eca 103e 17a5 46bf 15b1 6c3e
00000030: 95ac 49bf 4ad3 113f 545d 253e e255 2cbf
00000040: b55a 9fbe 737c 98be f211 0ebe dc6e 2cbe
00000050: 165a cabe 57f7 db3e 34c4 913e fee7 41bf
00000060: 5064 cbbe 0200 68bd 7b3a 133e 7819 73bf
00000070: 37dd 8ebe 7dcd 19bf 1045 16bf c7f3 81bd

up3.conv1.bn.running_var f4 [32]
1.3809791 1.3266944 0.89517057 2.749997 1.6101481 0.3895117 1.7847329 1.5930822
0.8201145 2.3762784 3.057331 1.1874489 0.66709733 3.2099667 0.85689366 2.9850085
1.1260474 1.0610071 1.2822961 0.9994466 0.6886374 1.400981 2.2434072 1.4719126
1.1983671 1.1586496 0.9951589 1.0618074 2.0789187 1.6794405 1.6159346 0.70294577
00000000: ecc3 b03f 1fd1 a93f e629 653f f3ff 2f40
00000010: 5519 ce3f 146e c73e 2172 e43f 1eea cb3f
00000020: 06f3 513f f214 1840 50ab 4340 53fe 973f
00000030: e4c6 2a3f 1870 4d40 625d 5b3f 610a 3f40
00000040: 5222 903f 15cf 873f 4722 a43f bbdb 7f3f
00000050: 8a4a 303f 5853 b33f fc93 0f40 a267 bc3f
00000060: 1864 993f a14e 943f bcc2 7e3f 4ee9 873f
00000070: 010d 0540 e8f7 d63f f2d6 ce3f 41f4 333f
